assets/pretrained/mnist_aditi_adv/B1.npy (npy, 2080 bytes, 1 tensors)

array f4 [500]
0	0xbea1cd1b	-0.31601796
1	0xbf22d34c	-0.63603663
2	0xbe830533	-0.25589904
3	0x3ca47ea2	0.020079914
4	0x3d5a9fa4	0.0533749
5	0x3ebd7c95	0.3700911
6	0xbf5eea7a	-0.8707653
7	0x3ec0a445	0.37625328
8	0xbea90854	-0.33014166
9	0x3e3c39d1	0.1838143
10	0xbf160169	-0.585959
11	0x3e76d283	0.24103741
12	0xbdf6d0e0	-0.120515585
13	0xbe3067b9	-0.17227067
14	0xbe1eabca	-0.1549522
15	0xbe9c725a	-0.30555993
16	0x3e392427	0.18080197
17	0xbf98d8fe	-1.1941221
18	0xbfb3c91d	-1.404575
19	0x3da2c352	0.07947411
20	0xbfc62f6b	-1.5483221
21	0xbee6e986	-0.4510004
22	0xbf9c3ebd	-1.2206646
23	0x3e9f1ecc	0.31078184
24	0xbe500c9d	-0.20317312
25	0xbf6831e7	-0.90701145
26	0xbf2b65ee	-0.6695241
27	0x3ea9ff38	0.3320253
28	0x3cccf9c4	0.025021441
29	0x3e47c15c	0.19507354
30	0xbf740140	-0.9531441
31	0xbe0c270e	-0.13686773
32	0xbeb52d04	-0.35385907
33	0xbe2e2943	-0.17007928
34	0xbed25584	-0.41080868
35	0xbef50e63	-0.4786254
36	0x3dfac652	0.12244858
37	0xbe362af7	-0.17789827
38	0xbf545dbe	-0.8295554
39	0xbf018bc8	-0.50603914
40	0x3e8dc515	0.27689424
41	0x3dcc6d8d	0.09981833
42	0x3e23d452	0.15998963
43	0x3e74d7ae	0.239104
44	0xbd12a83f	-0.035804983
45	0xbdbed1f0	-0.09317386
46	0xbe810b56	-0.2520396
47	0x3d52e66f	0.05148929
48	0xbf3933c9	-0.7234464
49	0x3ecc1217	0.3985755
50	0x3e14702c	0.14495915
51	0xbea6a418	-0.3254707
52	0xbe883654	-0.2660395
53	0x3e6f7213	0.2338336
54	0x3f22d8a7	0.63611835
55	0x3dc9158f	0.09818565
56	0x3e48c25a	0.19605389
57	0xbd04cb99	-0.03242073
58	0xbf0b225e	-0.54349315
59	0x3ebaf933	0.3651825
60	0xbef60281	-0.48048785
61	0xbf164293	-0.58695334
62	0x3e814b09	0.2525256
63	0xbeb99d34	-0.3625275
64	0x3e7f4d94	0.24931937
65	0x3e5a35ef	0.21309637
66	0xbca34f38	-0.019935235
67	0xbfc2373d	-1.5173107
68	0xbd23def0	-0.04000753
69	0x3e08cb75	0.13358863
70	0x3dc938bc	0.09825274
71	0x3ec86f29	0.39147308
72	0x3c1724b0	0.009225056
73	0x3cd6fa15	0.026242295
74	0x3ebab1eb	0.36463866
75	0x3e649a1b	0.22324412
76	0x3e0b4930	0.13602138
77	0xbf14132d	-0.5784176
78	0x3ddc0c3e	0.107445225
79	0xbf7aad9b	-0.9792115
80	0x3e93a742	0.28838545
81	0x3e16dace	0.14731905
82	0xbe258de7	-0.16167413
83	0xbefdf690	-0.49602175
84	0x3e7ef45d	0.24897905
85	0xbcd9e624	-0.026598997
86	0x3bbb281b	0.005711568
87	0x3ec810e0	0.39075375
88	0xbe5d01c0	-0.21582699
89	0x3dba7df9	0.091060586
90	0x3d643599	0.055715177
91	0x3e0eacae	0.1393306
92	0x3e0ac152	0.13550308
93	0x3e13e959	0.14444484
94	0x3d93e3f3	0.07221212
95	0x3e32bdc5	0.17455204
96	0xbf9e4b65	-1.2366759
97	0xbe13254b	-0.14369695
98	0x3ea3d87e	0.32001108
99	0x3ee8998c	0.45429647
100	0x3cae552e	0.021280851
101	0xbf2fba63	-0.6864378
102	0xbe6940c5	-0.22778614
103	0xbe37d0a3	-0.17950682
104	0xbf44bbfe	-0.76849353
105	0xbd6fb5fe	-0.05852317
106	0x3eae91c1	0.34095576
107	0xbd29121c	-0.041277036
108	0x3df08b93	0.11745372
109	0x3d8a379d	0.06748889
110	0x3ecc9ec1	0.3996487
111	0x3d59efea	0.053207316
112	0xbee7bcc0	-0.45261192
113	0xbf3c3992	-0.73525345
114	0xbee2b04b	-0.44275126
115	0x3b354cd6	0.0027664206
116	0x3e3f52f7	0.18683992
117	0xbeb6116a	-0.3556016
118	0x3eece8a6	0.46271247
119	0x3b917d12	0.0044399584
120	0x3f0cf5c8	0.5506253
121	0x3dd47164	0.1037319
122	0x3c768357	0.015045962
123	0x3e83101d	0.2559823
124	0xbe989eb0	-0.2980857
125	0xbed2d546	-0.4117834
126	0xbe5cd2e1	-0.21564819
127	0xbf257968	-0.64638376
128	0xbf521760	-0.8206692
129	0x3e489c81	0.19590952
130	0xbf9659cc	-1.1746154
131	0x3ef970d6	0.487189
132	0x3ed29e2c	0.411363
133	0x3e8ba17d	0.27271643
134	0xbea696a9	-0.3253682
135	0x3e3d67da	0.18496647
136	0x3e25cba4	0.16190964
137	0x3d9192b2	0.07108058
138	0xbe3ede00	-0.18639374
139	0x3d1bf3f0	0.038074434
140	0x3e496301	0.19666673
141	0x3e960844	0.2930318
142	0x3d38bdcb	0.045102876
143	0xbf7cb2e6	-0.9871048
144	0x3c218f40	0.009860814
145	0xbd0165e7	-0.031591322
146	0x3cf9d490	0.030496866
147	0xbf7b8b78	-0.9825969
148	0x3ccd455c	0.025057487
149	0x3ddf3e10	0.10900509
150	0xbf0db899	-0.553598
151	0x3e00b269	0.12568058
152	0x3e895bc1	0.26827815
153	0xbe5147e9	-0.20437588
154	0xbe6f896b	-0.23392265
155	0xbf1edebd	-0.6205862
156	0xbda04fe4	-0.07827738
157	0x3e3d58f2	0.18490961
158	0x3e40ea39	0.18839349
159	0xbeed1cb4	-0.4631096
160	0xbec7ff2d	-0.3906187
161	0x3e3ed306	0.18635187
162	0x3ed9e831	0.4255996
163	0x3e9d2b42	0.30697066
164	0x3dfa9e4b	0.12237223
165	0xbd5c1b5d	-0.053737033
166	0x3eb3f2d0	0.3514619
167	0xbf7f32c0	-0.99686813
168	0xbe136c3a	-0.14396754
169	0xbf6451ca	-0.891873
170	0x3ecfb812	0.40570122
171	0x3f2a727d	0.66580945
172	0xbf51a1d5	-0.8188756
173	0xbf3d0c46	-0.7384685
174	0xbf2caa14	-0.6744702
175	0xbf18e0e1	-0.5971814
176	0xbe407175	-0.1879328
177	0x3f0be8c1	0.5465203
178	0x3e1164a5	0.14198549
179	0xbe8a06d9	-0.2695835
180	0xbdb98818	-0.09059161
181	0xbf1aa70b	-0.6041114
182	0xbf043b74	-0.5165322
183	0x3e4af261	0.19819023
184	0xbf3d9660	-0.7405758
185	0x3d17d34b	0.03706674
186	0xbd1d278e	-0.0383678
187	0x3ea96026	0.33081168
188	0x3e3d48a8	0.18484747
189	0xbef46770	-0.47735167
190	0xbd81b2c1	-0.06332923
191	0xbc6e7132	-0.014553355
192	0x3ebc75b4	0.3680855
193	0xbe1dbc92	-0.15403965
194	0x3e6f4e13	0.23369627
195	0x3ee1206d	0.4397005
196	0x3ed5c700	0.41753387
197	0x3d7b674c	0.06137781
198	0x3e9e3e9c	0.30907142
199	0xbcc6d55f	-0.024271665
200	0xbe149151	-0.14508559
201	0xbccad8e5	-0.024761626
202	0x3b97dd32	0.004634523
203	0x3e43f723	0.19137244
204	0x3f12a109	0.5727697
205	0xbe2ede59	-0.17077006
206	0xbe5d9f2e	-0.21642753
207	0x3ecedea0	0.40404224
208	0x3dfdf408	0.12400061
209	0xbf1fc35f	-0.6240749
210	0xbe6c93c1	-0.23103239
211	0xbe0f8586	-0.14015779
212	0xbd640012	-0.05566413
213	0xbf5537b3	-0.83288115
214	0xbe8d657d	-0.27616492
215	0x3eb70d19	0.3575218
216	0x3e16a4b7	0.14711271
217	0x3de02b60	0.10945773
218	0x3e96514e	0.29358906
219	0x3ee12635	0.43974462
220	0xbcc5f112	-0.024162803
221	0xbd6dffd6	-0.058105312
222	0xbfcb4a44	-1.5882039
223	0x3d6d6a41	0.05796266
224	0xbb7905e3	-0.0037997894
225	0x3ea6c424	0.32571518
226	0xbebd3e3d	-0.36961547
227	0xbf011379	-0.5042034
228	0xbdeca998	-0.11555785
229	0x3ef1e4e3	0.4724494
230	0x3dcf4f68	0.101225674
231	0xbf3fe75d	-0.7496241
232	0xbcae6ec8	-0.021293059
233	0xbe852ada	-0.26009256
234	0x3ed328f4	0.41242182
235	0x3d872f86	0.06600861
236	0x3ea05976	0.31318253
237	0x3ddf6758	0.10908383
238	0x3ddde632	0.10834922
239	0x3ea1a995	0.31574693
240	0xbf009385	-0.50225097
241	0x3dc9b5a0	0.09849095
242	0x3e8a16a4	0.26970398
243	0x3cb6faf0	0.022336453
244	0x3e1feb15	0.1561702
245	0x3e9986b2	0.29985577
246	0x3c97c0c1	0.01852453
247	0x3eae240e	0.34011883
248	0xbe3f8a0c	-0.18705004
249	0x3d544c12	0.05183036
250	0xbf0448f8	-0.5167384
251	0xbddd8a69	-0.10817415
252	0xbd85cfb1	-0.065337546
253	0x3e912c52	0.28354126
254	0xbf3eaf2b	-0.74486035
255	0x3e79429b	0.24341814
