assets/pretrained/mnist_aditi_adv/W2.npy (npy, 20080 bytes, 1 tensors)

array f4 [500, 10]
00000000: 45c7 2c3b 9c6a f1ba d87d ac3a ae5e 1f3b
00000010: 5b61 a53a 08c6 2e3b 0fdb 8dbb eb93 1d3b
00000020: bffd 9bba 670f 0d3b cbec 213d 419b 1d3d
00000030: 9013 2e3d 3231 2f3d eea8 313d 5e58 223d
00000040: 2506 233d 2b7e 2e3d e780 243d 1575 2f3d
00000050: 7f61 623d c3c6 613d c190 a13d 8fc8 a03d
00000060: 8146 613d bab1 613d b602 613d da8d 613d
00000070: 1169 613d 8d10 623d 1a5f 723c 0fe0 54bb
00000080: be89 37bb bdd0 3cbb f60b 32bb 07d3 c9ba
00000090: 3a37 51bb 7ed3 2ebb 4262 6e3c e590 743c
000000a0: 2b48 2f3d 2752 8d3d 8be2 8e3d 230e 313d
000000b0: 54b4 2f3d 767a 313d 3049 313d 7ce5 8d3d
000000c0: efa7 303d 2da9 303d 0ccf b8ba 541a adba
000000d0: d3cf 93ba 1ef0 a4ba cac6 fb3c a4a8 89ba
000000e0: 873f d5ba f88b 9dba 0298 aaba 5cc3 a7ba
000000f0: 9a15 e33c 04b3 823c 9947 7d3c 5c8e 7b3c
00000100: 105d e53c 22de e23c 6da9 e03c bab1 e33c
00000110: 1bc1 e23c ac06 e43c 1ebc dc3b 9ab9 d33b
00000120: db5e d63b 6040 e43b c373 df3b 488c e13b
00000130: d185 d13b 695b 4d3d a470 d53b e139 d13b
00000140: 36f4 3dba c923 08bd c013 07bd 9e73 07bd
00000150: b26f 05bd 400b 07bd 7b90 80ba 8172 06bd
00000160: 1d71 08bd 3d1b 07bd 15ed 55bd 29cd 7abc
00000170: bb9a 7cbc 49d2 82bc 9c5b 58bd 65c5 57bd
00000180: e8f7 57bd edce 7ebc 27e3 57bd e341 57bd
00000190: c782 d63c 815c ae3c 28c5 aa3c 0d20 a93c
000001a0: d8d0 d93c badc d63c f8e5 d43c ccc8 ad3c
000001b0: 8ba5 d83c e326 d53c 87cf 45bd 5d5c 44bd
000001c0: 1d4a 48bc c7f7 44bd 1165 45bd 3ceb 44bd
000001d0: ab0a 50bc 3d58 44bd 3fd7 45bd 4c26 45bd
000001e0: e516 8d3c 8e6a 06bc 314c e8bb 3d8d 9ebc
000001f0: d0e8 923c 5cd3 8e3c f109 903c 5e63 ebbb
00000200: 1057 8b3c b2a3 dbbb 230e 773d db70 b03c
00000210: 32ee 263b 6703 2d3c 4af0 773d b2a3 773d
00000220: 3888 763d 04d7 a43c 9f31 773d c3f3 763d
00000230: 93d9 813b 4c15 e43a a9a5 be3a ba7a 923b
00000240: 3183 8f3b 1b60 883b 6d68 6a3b 8a82 ec3a
00000250: d2f0 8b3b ac9f e93c 54f7 103c d599 f93b
00000260: e185 093c 0144 4e3d 7720 0c3c 8115 123c
00000270: d014 133c 42cd 043d e5df 0f3c 3f04 053d
00000280: 711a 1dbd d807 1dbd e23c 1dbd 25aa 1dbd
00000290: f0aa 1dbd 0298 9fbd 93b8 9ebd 37a0 1cbd
000002a0: ca5e 1ebd 2eee 1cbd ae44 ef3c 9fa7 e3bc
000002b0: b7dd e4bc 5115 e6bc 210d e8bc 670e e3bc
000002c0: 5f81 e4bc 04d9 f43c b45e e4bc dd94 e6bc
000002d0: c63d 15bd 723b 14bd 67b3 12bd 717e 15bd
000002e0: 0d6c 14bd 2565 6fbc a8a0 e7bb 594f 15bd
000002f0: 58ea 16bd 27c6 15bd 4fcd a23c 8366 80bc
00000300: b6f2 a03c a9ec a53c 25d9 6dbd e2f4 a33c
00000310: ec2d a53c e316 a63c 386a a33c 5031 a13c
00000320: 3164 0bbd 382c 0cbd 4bf5 0abd 4198 0bbd
00000330: 5fcf d73c bee0 09bd 9964 08bd 026b 0bbd
00000340: 413a 0abd 4aa8 0abd 5392 fbbc fa06 0abd
00000350: 32c2 ffbc 7cd0 0dbd a8fe f8bc 8008 00bd
00000360: dbc8 f9bc 5e02 0dbd 26b5 00bd 3591 0cbd
00000370: d42f 0c3d 2cdf 14bd d7dd 15bd b9c5 15bd
00000380: 4105 15bd 89ee 14bd fc59 13bd 7372 15bd
00000390: e036 15bd 2486 16bd dbff 073d a4ad 063d
000003a0: 8cfd 6c3c 2a36 0dbd 02f9 073d 562c 0a3d
000003b0: 922f 083d ee86 703c e2ac 063d b112 043c
000003c0: eef5 5f3d 2882 5e3d c68b 5f3d 6b7b 5f3d
000003d0: 08c6 be3c 43cd 5e3d 1063 5e3d 221c 5d3d
000003e0: 719f 5e3d 43c4 5e3d 3ec9 0ebd f0fc 18bd
000003f0: 6060 0cbd 3939 17bd 0cf4 0cbd 0a33 15bd
0.002636389 -0.0018418613 0.0013160063 0.0024317908 0.0012617515 0.0026668329 -0.0043290923 0.0024044465
-0.0011901184 0.0021524073 0.039532464 0.03847814 0.042499125 0.042771526 0.043373995 0.039635055
0.03980078 0.042600792 0.040161993 0.042836268 0.05526876 0.055121195 0.07888938 0.078507535
0.05499888 0.055101134 0.054934226 0.05506692 0.05503184 0.055191565 0.014793182 -0.0032482182
-0.0028005685 -0.002881094 -0.0027167774 -0.0015397974 -0.0031923787 -0.0026676352 0.014549794 0.014927124
0.042793434 0.06900435 0.069768034 0.043226372 0.042896584 0.04332968 0.043282688 0.06928536
0.043128904 0.04313009 -0.0014099791 -0.0013206699 -0.0011277146 -0.0012583768 0.030734438 -0.0010502529
-0.0016269543 -0.0012019863 -0.0013015273 -0.001279931 0.027720261 0.015954502 0.015458965 0.015353765
0.027998477 0.027693812 0.027424539 0.027794708 0.02767997 0.027835213 0.0067362925 0.0064613344
0.0065420694 0.006965682 0.00681922 0.006883178 0.006394126 0.050136004 0.006513672 0.0063850735
-0.0007246168 -0.033237252 -0.03297782 -0.033069246 -0.032577224 -0.032969713 -0.0009808684 -0.032824043
-0.033311 -0.03298496 -0.052228052 -0.015307703 -0.01541775 -0.015969412 -0.05282174 -0.052678484
-0.052726656 -0.015552265 -0.052706864 -0.05255307 0.026185406 0.021284344 0.020845965 0.020645166
0.026588842 0.026228298 0.025988564 0.021213911 0.026446125 0.02601952 -0.048293617 -0.047939647
-0.012224701 -0.04808786 -0.048192088 -0.0480759 -0.012697856 -0.047935713 -0.048300978 -0.048132226
0.017222831 -0.008204116 -0.007089161 -0.019354457 0.01793328 0.017434768 0.017582865 -0.0071834764
0.017009288 -0.0067028636 0.060316216 0.021538189 0.0025471565 0.010559893 0.060531892 0.060458846
0.060188502 0.020122059 0.060350057 0.060291063 0.0039627044 0.0017401366 0.001454522 0.0044701966
0.004379653 0.0041618473 0.003576781 0.0018044275 0.0042706514 0.02851852 0.00884803 0.007617215
0.008393736 0.050357822 0.008552662 0.00891626 0.00897713 0.03242231 0.008781408 0.032474753
-0.038355295 -0.03833756 -0.03838814 -0.03849234 -0.038493097 -0.07792665 -0.077500485 -0.03823873
-0.038664617 -0.038313083 0.029207554 -0.027789889 -0.027937753 -0.028086336 -0.028326573 -0.027716829
-0.02789372 0.029888637 -0.02787719 -0.028147155 -0.036435865 -0.036189504 -0.035815623 -0.036497537
-0.036235858 -0.014611517 -0.0070687123 -0.036452625 -0.03684458 -0.036565926 0.01987329 -0.015673881
0.019646984 0.02025445 -0.058068413 0.02001423 0.020163499 0.020274585 0.01994811 0.019676834
-0.034031097 -0.034221858 -0.033925336 -0.034080748 0.026344 -0.033661596 -0.033299062 -0.034037597
-0.03374696 -0.0338519 -0.030709421 -0.03369806 -0.03122053 -0.034622654 -0.030394867 -0.031258106
-0.030491283 -0.034426086 -0.031422757 -0.034318168 0.0342253 -0.036345646 -0.036588516 -0.036565516
-0.036381964 -0.036360297 -0.035974488 -0.0364861 -0.036429286 -0.03674902 0.033202987 0.03288044
0.014464747 -0.034475483 0.033196457 0.03373369 0.03324849 0.014680607 0.032879718 0.008061097
0.054677896 0.054323345 0.054576658 0.05456106 0.023287788 0.05439497 0.054293692 0.053981908
0.054351274 0.05438639 -0.03485989 -0.037350595 -0.034271598 -0.036919806 -0.03441243 -0.036425628
